assets/models/model.onnx (onnx, 20965 bytes, 6 tensors)

coefficient f4 [39, 64]
00000000: a3d9 823c 97ce 8d3e e898 163e 85bf 2bbd
00000010: 1b8f dbbd 78d0 88be ec7e 1abe fefe 183e
00000020: 2406 4b3d d069 153e 0883 f7bd 246c a23e
00000030: a670 2c3e 0cbb afbd ee99 4bbe e4ff f2bd
00000040: c441 37bd fa1d 6abd c060 68bc 359a a0bd
00000050: a492 aa3d 8cd3 21be 9c33 d6bd 2dbd a3bc
00000060: a7d5 fcbb 4495 323e 0024 32be ebb9 08bc
00000070: 9f9a 883d 3b6e a2be 68be 37bd 6e1a e3bd
00000080: 36f1 b1be 06f9 1a3e 9cf0 5a3e 6d19 613d
00000090: e3aa 57bc be25 fabd d9de 083e 3212 a1bd
000000a0: 42b2 52be 5b88 7a3d d305 28be 9acb 853e
000000b0: 47b1 eabd 252e f33d d2ac 29be 7792 913d
000000c0: da70 963d 3daf 91bd 572f 9d3e d884 ca3c
000000d0: 14d7 3a3e 66d0 9e3e cfa0 d53d 465a 833e
000000e0: 1ae2 a5be e812 06be a227 4ebe fb80 f8bd
000000f0: 9862 a8bc f76d c6bd 22fc 823e d1bc 073c
00000100: 3578 74be a419 34bd b48b a7be dadd 513e
00000110: a524 93be d2f6 c23e 09a6 c73d df69 acbd
00000120: a4dc 67be 66da 813d 8513 85bb 995b fe3c
00000130: 27f4 a23d 22c8 86be 3957 8abd 0be0 83be
00000140: addc f13d 08f6 143e 9e6e 46bd 3f4a 9cbe
00000150: 8091 d7bd e484 ffbd 708d 083e 4e50 c43c
00000160: ac2b 043e 46fb 14be 47b0 81be e566 183d
00000170: 6811 9c3d 6a9a c33d c214 513e d907 3fbd
00000180: 3c8c 363e 1d43 cf3c 78ff 36be 3957 01bd
00000190: dfad c2be 11f3 c1b9 c062 47be 3e8f 3d3d
000001a0: 7ac0 403e cc70 60be e7fd 82bd 0369 093d
000001b0: d727 47be e437 38be 30d4 b6bd c580 89be
000001c0: ae60 153e 9c8a 263d d406 183d a115 a73e
000001d0: 39ad 1b3e 8a29 8ebe 83df 023e a1ad 0cbe
000001e0: 1fe8 703e 562a 583e 98d3 0dbe 9f02 31be
000001f0: 9a60 52be b502 09bd 83c6 3b3d 68d8 f23d
00000200: 8549 9fbe 66a5 04bc fc4d 5bbc 1297 25be
00000210: 5c97 6fbe e108 90bd 6aa4 563e 15b6 cbbd
00000220: f6dc 61bd 9fce 023e 05e8 cabd 8a33 6b3e
00000230: 6a14 663e decc afbd 1d5a 853d c54a bdbd
00000240: 9ebe 01be 9735 6dbe e318 173c 4dfd 2b3c
00000250: 6e1f c1be 8d40 c5bd 8b24 273e c2b3 26be
00000260: d738 33be 23df 253d af0f 893e dfa0 d4bd
00000270: 8427 bb3d dd83 0e3e c445 bcbd 4cbe 0e3e
00000280: 93b3 ccbd 29d4 f33c 9da3 713d 0929 93bd
00000290: ea8f 41be 4880 453e 6883 e2bc 4ef3 7cbe
000002a0: 95ee 48be 7056 c73d bbd4 c93c 1df9 62be
000002b0: ca3c 483d 6d8a 28be d5f8 e23d 50c0 45be
000002c0: 2533 173e c3d7 60bd 8c4c 103e 036b 36be
000002d0: bbeb 8dbd 5353 a8be 0a3a 363e 61e7 5c3e
000002e0: 4793 8abd 8719 3c3d b249 2d3e de96 3c3c
000002f0: 94fb f73c 24d7 eabd bdaa 57be 6d20 583e
00000300: fb1b 403e efcb 693c 1d10 b73a 3be9 e6bd
00000310: aa28 0e3e 1bb4 613d 798f 553e bf3b 013e
00000320: 97fd bf3c f3d4 6abe a4bd a6bd b593 733e
00000330: e720 c93d da49 c1be e2d2 35be 2724 6a3d
00000340: 129e 97be f904 83be 4d02 ee3b 59a9 193e
00000350: 2c53 043e 8f2b 01be d195 933d 4037 1abe
00000360: 8338 bfbd 8e7a c03d 4077 3a3e 0439 863e
00000370: 50df 073d 3495 843c 23a9 35be bf90 ffbd
00000380: 89d9 7abe 20dc e0bd 250f 473e f9c4 05be
00000390: e355 563e ca24 d43d 9afa 263e 4510 803d
000003a0: be87 5b3d 31bb 693d 9c75 cfbd daa9 ec3d
000003b0: 9b47 3ebd d15b 50be 7f70 7c3d f2fc 14be
000003c0: c2f5 893e 3f94 593e 8420 593e 2e95 c7bd
000003d0: ef25 7abe 5842 9f3e d289 7bbb 824d 4e3e
000003e0: 507c 343e 30b4 2e3e 59a9 35bd e277 fcbc
000003f0: 061a 553e 2013 39bd 8d34 41be a4aa 383d
0.015972918 0.27696678 0.14706767 -0.041930694 -0.107206546 -0.2672155 -0.1508748 0.14941022
0.049566403 0.14591146 -0.12085539 0.3172313 0.16839847 -0.08580598 -0.19882938 -0.118652135
-0.044740453 -0.057157494 -0.014183223 -0.07841913 0.08328751 -0.15803355 -0.104590625 -0.019987667
-0.007715899 0.17439753 -0.17396545 -0.008345108 0.06670117 -0.31724724 -0.04485932 -0.110890254
-0.34754342 0.15134057 0.21380848 0.05495589 -0.013163301 -0.1221423 0.1336626 -0.078647986
-0.20575812 0.061165195 -0.16408472 0.26131898 -0.11459594 0.11874036 -0.16569832 0.07108014
0.073457435 -0.07113502 0.3070018 0.024721548 0.18246108 0.3101837 0.104310624 0.2565481
-0.32399064 -0.1309315 -0.20132306 -0.12133976 -0.020554826 -0.09688943 0.25582987 0.008284763
-0.2387398 -0.043969765 -0.32723773 0.20494786 -0.28738895 0.38078934 0.097484656 -0.08418631
-0.22642761 0.06340484 -0.004061165 0.031049537 0.079567246 -0.26324564 -0.06754918 -0.2575687
0.11809669 0.14546978 -0.048445337 -0.30525395 -0.10525799 -0.12476519 0.13335204 0.023964074
0.12907284 -0.14548978 -0.253298 0.037207503 0.076205075 0.095509365 0.20418075 -0.046638343
0.17826933 0.025300557 -0.17870891 -0.031577323 -0.38023278 -0.00036992927 -0.19471264 0.046279185
0.18823424 -0.21918029 -0.06396084 0.033547413 -0.19448791 -0.1799007 -0.0892719 -0.26856056
0.14587662 0.040659532 0.037115887 0.3263369 0.15202798 -0.27766067 0.12780575 -0.13738109
0.23526047 0.211099 -0.13850248 -0.17286156 -0.20544663 -0.033449847 0.045843612 0.118576825
-0.31110778 -0.008096075 -0.013385292 -0.1617091 -0.23397583 -0.070329435 0.20961156 -0.09946839
-0.055142365 0.12774132 -0.099075355 0.2296888 0.22468725 -0.08583997 0.06511328 -0.09242777
-0.12670371 -0.23164974 0.009222242 0.010497403 -0.3771929 -0.09631453 0.16322534 -0.1627951
-0.17502151 0.040496003 0.26769778 -0.10382246 0.091383964 0.1391749 -0.09192994 0.1393978
-0.099951886 0.029764252 0.058993924 -0.07185561 -0.18902555 0.19287217 -0.02765055 -0.24702188
-0.19622262 0.097332835 0.02463757 -0.22165342 0.048886098 -0.16459055 0.11082617 -0.19311643
0.14765604 -0.054893266 0.140917 -0.17814259 -0.06929728 -0.3287607 0.17795578 0.21572639
-0.06766372 0.045922782 0.16922644 0.011510579 0.030271329 -0.11466816 -0.21061225 0.2110612
0.18760674 0.014269813 0.0013966594 -0.11274954 0.138827 0.055103403 0.20855512 0.12620448
0.02343635 -0.22932796 -0.0814164 0.23786815 0.09820729 -0.37751657 -0.17756227 0.057163384
-0.29612786 -0.2558973 0.007263458 0.15006007 0.12922353 -0.12614273 0.072063096 -0.15060139
-0.09336951 0.093983755 0.18209553 0.26215374 0.03317195 0.016184427 -0.17740302 -0.1247878
-0.24497046 -0.109794855 0.19439371 -0.1306342 0.209312 0.103585795 0.16306534 0.06253103
0.05359625 0.057063285 -0.10129854 0.11555834 -0.046455007 -0.20347525 0.061630722 -0.14549616
0.2694531 0.21247958 0.2120381 -0.09745251 -0.24428533 0.31105304 -0.0038381708 0.20146754
0.17625546 0.17060924 -0.044350956 -0.030818883 0.20810708 -0.045184255 -0.18867703 0.04508461

intercepts f4 [1, 64]
00000000: e666 483e 2557 543e fe43 d13e f251 10bd
00000010: 5abd 873e 6687 fe3d 532a b13d 47a3 803e
00000020: 75eb e23c 0903 8ebd e76d ad3e ef17 173e
00000030: 0792 963e 6ee6 b63e 54de 2dbe f853 913e
00000040: f569 c33d 9584 02bd 7f2c 3f3e e23a 943e
00000050: e204 22bc 09fa 983d 6ad1 523e c3cf 5b3e
00000060: 8bed 863e 6a25 913c 9281 2abd 6c30 613d
00000070: af32 9a3e fb1f 3abd 2664 c43c ef72 bb3e
00000080: 6bd8 57be fc0a 523e ad4c 6a3d a7cb 933e
00000090: 16b2 543d 9c63 20bd ac65 773e 1361 af3e
000000a0: 26fa a33d c757 69bc 6a8b 703e a40a 853e
000000b0: a1cb 393e 443d cb3d 2f3d 8b3e d810 633e
000000c0: 74c5 b73a 07a6 1c3e 0de9 21bd d8f3 a6bd
000000d0: d209 a33c 9614 75bd a0f5 053d 5ff6 b4bc
000000e0: a236 7e3e f936 923e ac54 35be 3d83 a93e
000000f0: fb59 ef3d 7216 453d e02f aebd 15d4 e63d
0.19570503 0.20736368 0.40872186 -0.0352344 0.2651165 0.12428169 0.08650651 0.2512457
0.027700165 -0.06934173 0.3387291 0.14755224 0.29408285 0.3572268 -0.16979343 0.28384376
0.09541694 -0.03186472 0.18669318 0.28951174 -0.0098888595 0.074695654 0.20587698 0.21465974
0.26353106 0.017718036 -0.041627474 0.05497782 0.30116794 -0.045440655 0.023973536 0.36611125
-0.2107865 0.20512003 0.05720203 0.28866312 0.05192765 -0.039157495 0.24159878 0.3425375
0.080066964 -0.014242119 0.23490682 0.2598468 0.18144085 0.09923795 0.27195117 0.22174394
0.0014020638 0.1529771 -0.039528895 -0.08151978 0.019902144 -0.059834085 0.03270495 -0.022090135
0.24825528 0.28557566 -0.17708081 0.3310794 0.11687084 0.04811711 -0.08505225 0.1127092

coefficient1 f4 [64, 32]
00000000: d7c7 a43d c75f 5a3e 89f9 54be 392c 50bd
00000010: 001b d53c 6f71 a8bd 424f 653c 56e5 063e
00000020: 8026 0e3e f833 b03e e698 fbbd 13ff 8e3e
00000030: 55d0 af3c d3fa 533d 7d5d 27be a9da 91bc
00000040: 0749 373e afac 5f3e 79a3 a7bd 90ad 4f3e
00000050: 6805 5abe 547e 183e 8c53 e0bc c9df 3e3e
00000060: e67c b1bc deab 043d b78b 93be 19a0 793e
00000070: 3dd6 2bbe f746 453e efbf 803e 7b23 833e
00000080: 7979 e2bb ae7c 133d bce5 efbd f337 483e
00000090: 1c5b 06bd e2e3 953d 38ca febd a911 f7bd
000000a0: 9a0a b93d e2ce 24be 5f36 4c3e a561 f8bd
000000b0: b921 4cbe 1fcc b53d 46d5 77be ac76 983c
000000c0: ca6d c13d 1943 24be 1be1 5d3e 7c14 2ebe
000000d0: 0c50 38bd c687 6f3e 1a3a eabd 1108 17be
000000e0: 786b 78bd 73d7 90bd 547b a93d 1aad 35bc
000000f0: b128 263e e9aa 843e 5f91 35bc 1efc 643e
00000100: 15aa 11bb b496 be3e e4df 9ebe b9ae 803e
00000110: 1955 07be 97dd 27be 56cc ae3d b7e7 363e
00000120: 34f0 b8be 8112 12bd 35ee 5f3e 33e0 2f3e
00000130: f4c9 ae3e 5567 fa3c 5d20 423e 09fd a53d
00000140: 6fbf 9e3c 9f37 febb 3b2a 4d3e 0426 c63d
00000150: 9cfe a2be 6b64 dabd 5acf 4b3e 267b 813e
00000160: 80fd d7bd cdd8 c5bd 2b3f 86be d2b6 993d
00000170: 6fb3 f4bd 8ec9 29be a4c1 6c3e 84ce bc3d
00000180: 8b33 523e a8b7 893e 88d7 a3bd b896 2e3e
00000190: e936 ca3c c53c 1e3e 47c3 43bc ebc6 123e
000001a0: df95 ba3d f107 83bd e96a 68be d02a 1c3e
000001b0: 97e2 343e 0448 19be ca49 0b3d 2c02 08be
000001c0: a95f c03d 8711 f23c 0170 5a3e 585f d6bb
000001d0: 069b 1cbe 70a9 69be 49ee 5bbe 8f12 b93d
000001e0: db4a c1bd cf96 603e c75b cfbc 7f84 48bd
000001f0: 3f2d dabd 95b4 9fbe 76b8 32be b2da 03be
00000200: 0da3 893d 26e4 133d 6a2a a3bc 8448 f13d
00000210: a12e 95be b1c9 93bd c71a 7f3e ef84 103e
00000220: 91b0 f13d f12c b13c 238d 823e 5374 d73d
00000230: c018 6a3d 48bf 473e 899b 5ebe 3f2d 06be
00000240: f922 7c3e 3a6c 303e e899 4fbe 30e4 d9bd
00000250: e8f5 3abe 01f2 ad3c 418b d83d 5008 a43d
00000260: ab06 d1bd 7398 0cbd 49f4 c1be 3f89 ab3b
00000270: a4dd b93d 0fca 9a3e 75ef 7a3e 08af c3bd
00000280: 04ec bc3e 47c8 8f3e 1596 903e a3f7 a53c
00000290: 0c7d 263c 4d3b 34be 0ae2 6e3c 9e34 70be
000002a0: 6156 fa3c 7ce1 c9bd 7490 153e 7b8a b93d
000002b0: ffa3 80be c26d 143e d1a5 393e 8f3f f03d
000002c0: e7a6 b43e 7663 703e 0a4f 1f3e 03c5 9fbe
000002d0: 96fd bfbd d787 22be 19c3 2ebe 6f6f 0fbe
000002e0: 23fe 353e 998d 843e 8f62 fb3e 1fab 91be
000002f0: 0e76 af3d 93f6 203c 159b 6abd 0858 033e
00000300: 8d5b acbd f8e1 70bd ceb4 7b3e 231e 2cbe
00000310: 473e c83c 37e8 6d3e 0398 aa3d a2db 5cbe
00000320: 1fbe c6bd 73ff 80be 3513 423e 4b53 5dbd
00000330: 4e02 82be 2eb6 833e ba96 a2bc 683e 3c3b
00000340: 8b0f 673d 1ee8 5d3c b38c 8abe 116b f1bd
00000350: 06bc 653e 35e0 dd3d 8238 e9ba c52d c5bd
00000360: e043 2fbe 4ad5 b5bd 751a c03a ca1e 73be
00000370: 956a ea3b 258d 563e ac55 4f3e afff 943e
00000380: 0926 133e e6a2 b4bd 8660 a43e 189f 9abd
00000390: 2d1b a13e 9f3f a03e 6c40 dc3d c680 b93e
000003a0: cf64 bb3d de0d 12bd 36c0 85bc 1f50 423d
000003b0: acbf 22be ce67 ff3d 40df 5d3e 6ddd 13bd
000003c0: 5886 ac3d dd5d 9d3e 635a 333e 9f56 9e3e
000003d0: bc09 bf3d 5f0e a93e 2361 d63d 4e45 f0bd
000003e0: 42cc fc3c faa4 153e 19d9 b8bd 52fb fe3d
000003f0: e67a 073e 5842 e6bd 06ca c33a c473 073e
0.08045929 0.21325599 -0.20798315 -0.050823424 0.026013851 -0.08224761 0.013995947 0.13173422
0.13881874 0.3441465 -0.122850224 0.2792898 0.021461645 0.051752876 -0.16344257 -0.01780446
0.17898951 0.21843217 -0.08185477 0.20281053 -0.21291125 0.1489194 -0.027383588 0.18640055
-0.021666002 0.032390468 -0.2881753 0.24377479 -0.16780944 0.19265352 0.25146434 0.25613007
-0.0069114533 0.036007576 -0.1171374 0.19552593 -0.032801732 0.07318856 -0.12440914 -0.12063915
0.09035225 -0.16094545 0.19942616 -0.12127999 -0.19934739 0.08876824 -0.24202451 0.018611275
0.09444769 -0.1604122 0.21667902 -0.17000002 -0.044998214 0.23391637 -0.11436863 -0.14749171
-0.060649365 -0.07072344 0.08275476 -0.011088634 0.1622646 0.25911644 -0.011082022 0.223618
-0.002222662 0.37224352 -0.3103019 0.25133303 -0.13216056 -0.16393124 0.08535068 0.1786183
-0.3612076 -0.035662178 0.21868213 0.17175369 0.34138453 0.03056685 0.18957658 0.08104903
0.019378392 -0.0077580954 0.20035641 0.0967522 -0.31834877 -0.106636845 0.19903317 0.25289267
-0.10546398 -0.09660492 -0.26220068 0.07505573 -0.11948287 -0.16580793 0.23120743 0.09219077
0.20527475 0.2689793 -0.08000094 0.17049682 0.024684386 0.15452869 -0.011948413 0.14333694
0.09110617 -0.06397999 -0.22697033 0.15250707 0.17664562 -0.14968878 0.034005918 -0.13282079
0.09393246 0.029549373 0.21331789 -0.0065421276 -0.15293512 -0.22818542 -0.21477617 0.09036743
-0.09438106 0.21932529 -0.025312318 -0.048954483 -0.10653161 -0.3119246 -0.17453179 -0.12876394
0.067205526 0.03610625 -0.019917686 0.117814094 -0.29137138 -0.07216204 0.24912558 0.1411321
0.118012555 0.021627875 0.25498304 0.10520234 0.05715251 0.19506562 -0.2173902 -0.13103198
0.24622716 0.17228785 -0.20273554 -0.106392264 -0.18257868 0.02123356 0.105734356 0.08009398
-0.1020635 -0.034325074 -0.37881687 0.005234867 0.09075478 0.30232283 0.24505408 -0.09554869
0.36898816 0.28082487 0.28239504 0.020259684 0.010161649 -0.17600746 0.014580259 -0.23457572
0.030558767 -0.09857461 0.14605886 0.09059616 -0.2512512 0.14494994 0.1812966 0.11730873
0.35283586 0.23475441 0.15557495 -0.31204996 -0.093745396 -0.15872131 -0.17066611 -0.14007352
0.17772727 0.2588928 0.49098632 -0.28450868 0.08567439 0.009824413 -0.057276804 0.1282655
-0.084158994 -0.05880925 0.2458069 -0.16808371 0.024443759 0.23233114 0.08329775 -0.21568158
-0.097042315 -0.25194892 0.1895264 -0.054034512 -0.25392383 0.2572493 -0.019847263 0.002872372
0.056411307 0.013544111 -0.2706047 -0.117879994 0.22435006 0.1083378 -0.001779333 -0.096278705
-0.17115736 -0.08878572 0.0014656322 -0.23742214 0.007153819 0.2095228 0.20247525 0.2910132
0.14369978 -0.08820133 0.32104892 -0.07549876 0.31466046 0.3129854 0.10754475 0.3623106
0.09150087 -0.035657756 -0.016327005 0.04743969 -0.1589343 0.12470971 0.21667194 -0.03609984
0.084240615 0.30735675 0.17514949 0.30925462 0.093280286 0.33018777 0.10467746 -0.11731969
0.030859116 0.14613715 -0.09025783 0.12450279 0.13230476 -0.11243123 0.0014937527 0.13227755

intercepts1 f4 [1, 32]
00000000: 297d 673e ac8f cd3c 8c42 6cbd f5c0 d8bd
00000010: 6fc6 043d 12e8 25be 4b3d c7bd 8893 903d
00000020: b9f2 393e 76ea 9d3e 9029 b53b f0ab 3d3e
00000030: 77b0 843e ad54 3a3e 4a57 55be f6a9 593e
00000040: df77 9f3e 6f1e 673e 97fb 4dbd 6411 e23d
00000050: 194d e93d 02b2 0e3e 51b8 5cbe 1d54 223d
00000060: 9214 023e 6c96 443e 340f 51be 966e af3e
00000070: ce6f 7ebd 3dbd 093e b935 4a3e e365 6d3e
0.22606339 0.025092922 -0.05768065 -0.10583679 0.032415804 -0.16201809 -0.097284876 0.07059389
0.18158998 0.30842942 0.0055286363 0.1852262 0.25915882 0.18196364 -0.2083408 0.21256241
0.31146142 0.22570203 -0.050288763 0.11038473 0.11391658 0.13935092 -0.21554686 0.039630998
0.1270316 0.19198006 -0.20415956 0.34264058 -0.062118344 0.13451095 0.19747056 0.23183398

coefficient2 f4 [32, 4]
00000000: d914 ac3e bd45 55be d961 f43e 5ef4 c5be
00000010: a09c 853e 31b9 a73e b1a6 be3d 263f cebe
00000020: 8dff bf3e b3bf c3be 644c 09bf 5743 843e
00000030: 6bd2 30bd c6e4 fc3e 02d8 78be 9b06 e5be
00000040: 9906 463e 0e71 05bd c537 debe cc25 a53e
00000050: 875a f3bd f8b2 63bc ed28 8b3d 3257 b53e
00000060: a858 113f 1f25 c13d 6370 0dbf 4475 0a3d
00000070: 9b44 2dbe a905 dc3e 0529 ddbe e2ef cf3e
00000080: 9650 893e 01e3 e0be 839e 06be 6fed cc3e
00000090: 8625 34bf 5963 133f 7af0 373d 63bd f33d
000000a0: f982 a6be 4e86 bbbe a4cd 0e3f 04ba 79be
000000b0: c34b 9d3e 6deb edbc 62f4 b8be f0c5 06bf
000000c0: 78ff 10be 9788 123f 0f1e a3bd 4d00 72be
000000d0: 4aa3 69be 4652 a33d 2a9c 00be 10ac c83e
000000e0: dab8 88bc e66c f13c 458f 8abe 7506 bc3e
000000f0: e835 c7be ccda 0bbf 7b7e ac3e 4b66 a63d
00000100: dd22 10be 390c 15be 40e3 cf3e 359b bfbe
00000110: e5b3 fd3e 7000 9e3e f3f8 aebe 7526 b4be
00000120: 635e 9ebe 013c 923e 1838 c93d 3adf 11be
00000130: 1b6b bfbd e9c2 0b3f 22e0 1ebe 044d fc3e
00000140: 0e3b 6dbe d929 01bf 1c46 25be 5eb2 8a3d
00000150: 860e c1be 0c0c 20bf e69c f33e 3020 ef3e
00000160: 3788 323e 01d8 77be 1cc2 a0be e797 adbe
00000170: bb02 23be 84e7 463f e347 f8bd fd93 1cbf
00000180: 7abb 503d 933a 60be ed4b 3939 77e0 803d
00000190: 3eff bd3e 5168 cdbe d138 14bf e1dd bc3e
000001a0: 674c 9c3e 2590 47bf 7a57 fabe 3836 dbbe
000001b0: db2a 77be 34d6 ee3e 44d9 a2be caa8 c5bd
000001c0: 56c6 b53c 824e c5bd 922f d33e a8eb 113f
000001d0: 3d99 fabe 83b6 773e cdf2 803d 6bdb d93e
000001e0: cc62 eebd 71c9 093f 9177 923e c1c3 7abe
000001f0: b1ef b1bd eeaa e63e 005e ec3e 5cd3 02bf
0.33609655 -0.20827384 0.47730902 -0.38663 0.26096058 0.32758477 0.093091376 -0.40282553
0.37499657 -0.38232192 -0.5363219 0.25832626 -0.04316942 0.4939329 -0.2430115 -0.44731602
0.19338454 -0.03257852 -0.43401924 0.322554 -0.11882501 -0.01389765 0.06794915 0.35418087
0.56775904 0.094309084 -0.55249614 0.03380324 -0.16920702 0.42973068 -0.43195358 0.40612704
0.26819295 -0.4392319 -0.13146405 0.40024897 -0.70369756 0.5757347 0.04490707 0.11901357
-0.325218 -0.36625904 0.5578253 -0.24387366 0.30721864 -0.029042924 -0.3612395 -0.5264578
-0.14159954 0.5723967 -0.079647176 -0.23632927 -0.22816196 0.07974677 -0.12559572 0.39193773
-0.016689707 0.029470872 -0.2706243 0.36723676 -0.38908315 -0.5463073 0.33690247 0.081249796
-0.140758 -0.14555444 0.40603065 -0.374231 0.4955131 0.3085971 -0.34174308 -0.3518559
-0.30931386 0.28561404 0.09825152 -0.1424531 -0.093466006 0.54594284 -0.15515187 0.49277508
-0.23167059 -0.5045448 -0.16140026 0.06772302 -0.37706393 -0.6251838 0.47580642 0.46704245
0.17434774 -0.24203493 -0.31398094 -0.33904955 -0.1591901 0.77697015 -0.12123086 -0.6116331
0.05096004 -0.21897344 0.0001767126 0.06292813 0.37108797 -0.4011865 -0.57899195 0.3688803
0.3052704 -0.7795432 -0.48894864 -0.42814803 -0.24137442 0.466478 -0.31806386 -0.096513346
0.0221893 -0.09634115 0.4124723 0.5700021 -0.48945037 0.24190716 0.062963106 0.42550215
-0.11639938 0.53823 0.28606847 -0.24488737 -0.08688296 0.45052284 0.46165466 -0.5110376

intercepts2 f4 [1, 4]
00000000: bbe6 ea3d 7864 cdbd 5723 a2be 60b0 d3bd
0.114697896 -0.100289285 -0.31667587 -0.10336375
